example/assets/models/keywordSpotter/decoder-epoch-12-avg-2-chunk-16-left-64.int8.onnx (onnx, 277985 bytes, 4 tensors)

decoder.conv.weight f4 [320, 4, 2]
00000000: 8eb0 ffbe a385 b8be e40a b9bc 8eba c2bf
00000010: b1d4 20bf 281d 523e 0077 3b3a 5e63 0f3e
00000020: 456b 8e3f bc61 ed3e 8a5b e93e d05e c1bf
00000030: 3c8e 2abf 0ada 13c0 0cd8 1f3f cad8 15bf
00000040: b083 8fbd 92fb 5d3e 6534 433e 2c7a d4bf
00000050: de99 c63e 23e1 14bd 2642 bbbe 5042 a33d
00000060: 9ce8 0c3f b590 b03e 904a 91be 96e1 f9bc
00000070: 9eae f83c 016d a6be 5e0c f5be f09a 03c0
00000080: be13 77bf 20a6 ed3e 208a 9a3e b8d4 d2bc
00000090: 87e3 8bbe 6ab6 c3bf 3640 9ebe 4061 eb3f
000000a0: 6862 60bc 4fe1 893e 19f0 863f 00fc 37bd
000000b0: f366 c9be fdc7 23c0 f7ae ef3e f8be ea3e
000000c0: e9f0 82be 0b24 3ebf 9c2f a0bf c1bf 84bf
000000d0: cf74 2c3e 10b4 80c0 d142 023f 8b5c 343f
000000e0: 020d 163f 7e52 4bbd c697 57bd aa6e b6bd
000000f0: 13c9 b9be bc1b 20c0 84c3 13bf d46b 6fbe
00000100: 946b 343e 2c47 f2be 2ce4 44be 4e31 f2bf
00000110: 8026 483a 7451 26bf ec6e adbf b443 b63e
00000120: 01c7 8ebf f28c b0bf 3ee4 173e 6931 4bbf
00000130: d673 00be 3acc e0bf 7ac9 08bf 920d 04be
00000140: c6df 42be 844d b53e 98d4 b3bf 8965 b0bf
00000150: f00e bb3d 788b dabf 0052 49bd 60f9 56be
00000160: 2ecb 7fbe 9718 45bf 96e5 adbe 4ca0 74bf
00000170: c43c 0f3e 34ec 793f 74dc 87be 2811 1c3e
00000180: 1211 a33e d09a d2bd a795 893e e0c3 59bf
00000190: 9f39 10bf e636 11bd 397b 25be 350f a0bf
000001a0: f744 043f 42fb 08c0 c690 c63e 129d f5be
000001b0: d892 7abf 50a6 d2bf 54e7 64bd 1294 c5be
000001c0: ac02 0abf e82a d4bf ee97 173f dc2f 703f
000001d0: 2e43 6ebf 4a58 3fbd 4f87 a7bf 50b5 903e
000001e0: e7e3 11be 1201 e0bf 4ee1 283f 7f57 0fbf
000001f0: 05af 073f 48e9 293e 82fe 13bf c459 90be
00000200: 92f7 523e 2069 d03e fe23 983e 6ce9 1abe
00000210: 33e5 06bf 49a2 953f aa08 5abf a18d 2fbf
00000220: f703 1540 0d9d 823f d08e 653f 444b 5640
00000230: e808 9cbe 44b8 07be 14c0 3b3e 0891 58bf
00000240: fc8c d93f 749a 2b3f acb4 72be 52d8 fe3f
00000250: 185f ca3c 3824 cd3f f21a 3cbf 105d 2a3c
00000260: 50f7 f3bd 13e7 27bf ee3c 3cbe ca71 563d
00000270: cd8c 0d3e 7c70 ca3e 9470 d9bc 9cc7 2abf
00000280: fe34 d2be 00f9 d23c 989e 98bd e1a3 9e3f
00000290: e056 bfbe c146 853d 0c8e 363f 5e72 753f
000002a0: d43a 963d 8b9d bbbf 0eaa da3b 82aa ccbe
000002b0: 0fd9 003f e693 023f 6ee4 473e 420f a5bd
000002c0: 23e0 92bf 00dc a439 bbbf 6a3e 5571 b13f
000002d0: 986c cdbe a6b9 99be 8ae0 cd3e 9c4e 3fbe
000002e0: 5c25 2e3e f081 8abf 7c1c d9be 204f 1f3e
000002f0: a2a7 38bf 3d2a 27bf 1f67 af3e 803c 5fbf
00000300: 98c8 273f 9a45 a1be 7b2c 0bbf 407b aa3f
00000310: 7284 ae3d 5c68 183f 3c4f ec3e c497 7d3d
00000320: 7490 4a3e 6eff e53f c963 4fbd 3271 bc3e
00000330: 5a1e a23d b2e3 5e3e a24e 4f3f 62f3 94bd
00000340: fc4d 9d3e 2598 313f f881 a6be e767 b03f
00000350: 4545 0d40 70ec ff3f 6481 63bf 393a aa3f
00000360: 12a7 353d 3e14 6cbf d6b1 d7bd 6e09 68bf
00000370: 2e75 363e ee6f 033f 1c6f 2d3e 9e2b 4c3f
00000380: 4fad 993f 00e4 2e40 0891 d23e 3e65 cebf
00000390: 064f b03e 8039 263f 61a3 8b3f e93c afbe
000003a0: b1e3 c43d 9086 cdbd 948f a5be eb3f 30bf
000003b0: d8bb ddbe fa7d c33f 58c3 36be 1d1f 8a3f
000003c0: 50d5 d03b 9c46 b9be bcfe 80be b53d a0bf
000003d0: 62d4 2d3e ae3c ce3d 47af a83d b26d 44be
000003e0: b0c9 a33e 70b2 6b3c f069 cc3d 8e89 373e
000003f0: 7661 fd3e 2cb7 e83f 7482 abbe b231 50bf
-0.49939388 -0.36039457 -0.0225882 -1.5213182 -0.6282454 0.20518935 0.0007151216 0.1400275
1.1126486 0.46363628 0.4557765 -1.510706 -0.6662328 -2.310183 0.62439036 -0.5853392
-0.07007539 0.21677998 0.19062956 -1.6599784 0.38789266 -0.03634752 -0.36573905 0.079716325
0.55042434 0.34485403 -0.283772 -0.030503076 0.030356701 -0.32505038 -0.47860998 -2.0563316
-0.965145 0.46415806 0.30183506 -0.025736198 -0.27322027 -1.5290043 -0.30908364 1.8389053
-0.013695337 0.2692971 1.0542022 -0.04491806 -0.39336357 -2.5590813 0.46813175 0.45848823
-0.25574425 -0.7427375 -1.2514529 -1.0371019 0.16841434 -4.0219803 0.50883204 0.7045371
0.586136 -0.049639218 -0.052634977 -0.08907826 -0.3628622 -2.5016928 -0.5772021 -0.23380977
0.17619163 -0.47319925 -0.19227666 -1.8921297 0.00076351315 -0.6496804 -1.3549476 0.35598528
-1.1154481 -1.3793013 0.14833161 -0.7937227 -0.12544188 -1.7562325 -0.5343243 -0.12895802
-0.19030675 0.35410702 -1.4049253 -1.3780986 0.091337085 -1.7073812 -0.049150467 -0.20993567
-0.2497985 -0.76990646 -0.33964223 -0.95557094 0.13988024 0.9762604 -0.2653538 0.1524092
0.3184896 -0.102834344 0.26871988 -0.85064507 -0.5633792 -0.035452746 -0.16160287 -1.2504641
0.5166773 -2.1403356 0.38782328 -0.47971398 -0.97880316 -1.6457005 -0.055884674 -0.3858953
-0.53910327 -1.6575594 0.592162 0.9382303 -0.9307126 -0.04671506 -1.3088168 0.2826333
-0.14247094 -1.7500327 0.6596879 -0.55992883 0.53001434 0.16592896 -0.57810223 -0.28193486
0.20602253 0.40705204 0.2971496 -0.15128106 -0.5269348 1.169015 -0.8516947 -0.68575484
2.328367 1.0204178 0.8967104 3.3483438 -0.30475545 -0.13253886 0.1833499 -0.845963
1.699615 0.6703255 -0.23701733 1.9909766 0.024703547 1.6026678 -0.73478615 0.010398164
-0.119124055 -0.65586966 -0.18382618 0.05235461 0.13823242 0.39538944 -0.02654294 -0.6671083
-0.41056055 0.025753498 -0.07452124 1.2393762 -0.37370968 0.06507636 0.71310496 0.95877635
0.07335439 -1.4657453 0.006673104 -0.39973837 0.50331205 0.51006925 0.19520733 -0.08059551
-1.1474651 0.0003144443 0.22924702 1.3862711 -0.40121913 -0.3002445 0.40210372 -0.18682331
0.17006439 -1.0820904 -0.42404544 0.15557528 -0.7213079 -0.65298826 0.34258363 -0.8720169
0.65540457 -0.31498414 -0.54364747 1.3318863 0.08521356 0.5953424 0.461542 0.061912313
0.19781667 1.7968576 -0.050632272 0.3680511 0.07915945 0.21766546 0.8097936 -0.07272984
0.3072356 0.6937278 -0.32521033 1.3781708 2.2073529 1.999403 -0.8886931 1.3299018
0.044348784 -0.9221839 -0.105319664 -0.9063939 0.17818138 0.51342666 0.16936916 0.79754055
1.2006015 2.732666 0.41126275 -1.6124647 0.3443529 0.6493149 1.0909234 -0.34226158
0.09613741 -0.100354314 -0.32336104 -0.6884753 -0.43307376 1.527282 -0.17847955 1.0790745
0.006373085 -0.36186683 -0.25194347 -1.2518831 0.16975549 0.100701675 0.082365565 -0.1918247
0.31989813 0.0143858045 0.099811435 0.17923567 0.4948842 1.81809 -0.33497965 -0.8132583

decoder_proj.bias f4 [320]
00000000: 44dc 553c ce49 813c 96d2 8a3d e45a 983d
00000010: 1fd8 2abd 4a23 533d 52f1 fabc 7d76 ae3c
00000020: d280 bbbd cec9 9d3d 347a 873d 68a1 8e3c
00000030: 418c 183d 9d75 09be 3869 023d 97e4 1b3d
00000040: 810a 093e 1ad0 933c 0870 9cbb b27e 9ebd
00000050: a5d2 96bd e141 c4bc 86f4 c03d fab8 1fbd
00000060: 722e f2bd 15a3 8f3d 90d0 78bd b675 533c
00000070: d04a 5ebd 7eaf ce3d 6afa eb3d 1cdd 93bb
00000080: 30c3 40bd d187 b2bc b818 123e 3e3f e83d
00000090: 195a 8cbd 9821 eebc afef ba3d 6016 da3d
000000a0: e26e 0bbc 9807 843c fa05 ea3c da2e 93bd
000000b0: 9a38 90bd 67f4 d3bd 8864 ebbc 0d8d dabb
000000c0: 0c92 4dbd f72c d83d ce1a b9bd 0293 17be
000000d0: 8735 f7bc ba3d fe3d 2e0d 50bc 0268 ad3b
000000e0: 9498 81bd a8de f4bc fb63 df3b ee5e eebc
000000f0: 442f 2d3c 2440 ce3c e4d9 99bc f6db 9cbd
00000100: ce7b eebc da8d 8ebc 601d b53d 5905 06bd
00000110: dae4 d63d a226 2ebd 8abc ad3c bd4c c23d
00000120: f369 813d 3c2d 70bd 0eda 06be 0b39 32bd
00000130: 6521 9a3d 2220 07bc f932 44bd 5261 c73c
00000140: 47de 563d 4100 973d cdd9 bebd b428 a73d
00000150: a86b 883c d051 15bd 241a 943d 0882 6dbd
00000160: eb4c 8bbd 2a32 b2bd 7100 093d 86e9 adbc
00000170: 3c27 04be 5a8f 84bc b4c4 24bd 269f fdbc
00000180: bafc d2bd ac68 c9ba c164 2c3e 1576 3f3d
00000190: 5391 343d eb2d d1bb 8bba 863d a2ed f9bd
000001a0: f5cb bf3d e893 333d 4889 7a3b bd3a 5d3d
000001b0: e82b f13d 9453 b73b bd06 8a3d 9408 13bc
000001c0: 4c53 dd3c d78f a4bc 4e0c 8d3d 666f abbd
000001d0: d02d 083d 2c20 89bd 3291 1abd 205d fa3c
000001e0: 6a93 24be d6ae 4b3c f1bc d2bb 84af 3c3d
000001f0: c160 9ebd ee39 c2bc 03ce 1dbe e914 0c3e
00000200: dc24 f8bc f5c3 023e 93fd 0c3e 9c5e aa3d
00000210: b703 2fbc 3252 8d3d 0084 40b8 50e1 91bd
00000220: 739d c1bd 04a1 803d b8a0 3e3d 67bc 9cbd
00000230: db60 07bc a030 69bb e93a 433e dc4e a73c
00000240: 73ac 8bbd c616 0cbe 0c0b fa3c 289c 573d
00000250: 9afe b73d 3415 093e 15a4 0bbd 98d6 d2bc
00000260: 965b 423d b91a 86bd b48d 34bc 5986 39bd
00000270: 0a50 433d 94e1 d43c ac16 093d d221 7fbc
00000280: ba7e ab3d 1824 bdbd 621a 8fbd 34c2 d23b
00000290: d875 b4bd 085a a63d 875c 38bc 8da9 7bbd
000002a0: 904d dc3c 88d0 203d 355a b5bc 6e77 1ebc
000002b0: 68c6 7abd d890 16bd be66 c83c 507d 72bd
000002c0: df49 b23c 641c 9dbd b966 97bd 5a7d 85bd
000002d0: 83a7 b33d 2662 06bd 6ff2 943d 141a ce3d
000002e0: af39 5a3d 1778 c13d 6096 673c 9fbf 353d
000002f0: a25c afbd 145b 3dbc 385f 78bc b059 9e3a
00000300: d3f9 9bbd d0b5 2f3c 30dd 9aba e284 9b3d
00000310: b68e ccbd ddb1 be3d 58bb a93b 02aa 8cbd
00000320: f7c6 ecbc 7eb1 6a3d fee4 9a3c 502b 0dbe
00000330: 3ac2 64bd b97f b7bd dfcf b6bd 3244 e9bd
00000340: 9079 893c 801f 19b9 2c5f 06bc de84 98bb
00000350: 1c63 663d 320a a8bd c849 ab3b dc42 e93c
00000360: aaff 44bd 9e97 e43d c657 043e e8ba b33d
00000370: c800 b8bd 60f4 ec3c 7036 d43d b4d3 ecbd
00000380: 58f3 523c a0c7 77ba 9bce 75bd a03f b33b
00000390: 79de 023d ec18 56bd ff39 903d 3424 453d
000003a0: 8639 053d f2dc 9c3d 849b d0bb f94c 8cbd
000003b0: 9835 033e 12cd b03d 2e55 a03d f29e 42bd
000003c0: a50e ac3d ff39 ab3b 0284 1a3d 7234 603d
000003d0: 18c9 6dbc 0485 05be 97f7 5c3d f1c0 89bd
000003e0: c1b9 52bd f9bf 94bd 2267 bbbc f027 e1bc
000003f0: c8eb a83d 3ee0 bc3d 975f ed3d af57 9b3c
0.013053004 0.015782263 0.06778447 0.07439211 -0.041710015 0.051547326 -0.030632649 0.021296734
-0.0915543 0.07704507 0.06615105 0.017410949 0.03724313 -0.13423772 0.031838626 0.038059797
0.13382913 0.018043566 -0.0047740974 -0.07739009 -0.07364396 -0.023957195 0.09421639 -0.038994767
-0.11825265 0.07013527 -0.060745776 0.012906482 -0.054270566 0.10092066 0.11522372 -0.0045124423
-0.047061145 -0.021793278 0.14267242 0.113401875 -0.06853122 -0.029068753 0.09127747 0.10648799
-0.008510323 0.016116902 0.028567303 -0.071866706 -0.07042046 -0.103493504 -0.02873446 -0.0066696466
-0.05018811 0.10555451 -0.09038316 -0.14802173 -0.030176891 0.12414117 -0.012698455 0.0052919397
-0.0632793 -0.029891327 0.0068173385 -0.029098 0.010570351 0.025177069 -0.018780656 -0.07659142
-0.029111769 -0.017401624 0.088434935 -0.032719944 0.10492869 -0.042517312 0.021208066 0.09487293
0.06319036 -0.05863689 -0.13169119 -0.04351143 0.07525901 -0.008247407 -0.047900174 0.024338398
0.052458074 0.07373095 -0.09318886 0.081620604 0.016652897 -0.036454976 0.072315484 -0.057985336
-0.0680178 -0.08700974 0.033447687 -0.021229517 -0.12905592 -0.016181637 -0.040226653 -0.030959677
-0.1030211 -0.0015366278 0.1683531 0.04674347 0.044083904 -0.0063836477 0.06578549 -0.12203528
0.093650736 0.043842226 0.0038228799 0.054011095 0.117759526 0.00559468 0.067395665 -0.008974213
0.027017258 -0.02008812 0.068871126 -0.08370857 0.033246815 -0.066955894 -0.037736125 0.030561984
-0.16071859 0.012431821 -0.006431215 0.046065822 -0.07733298 -0.023709264 -0.15410618 0.13679852
-0.030291013 0.12770064 0.13768606 0.083188266 -0.010682038 0.06900443 -4.58993e-05 -0.07123053
-0.09453859 0.06280711 0.046539992 -0.076531224 -0.008262838 -0.0035581961 0.19065441 0.020423345
-0.068200015 -0.13680562 0.030522846 0.052639157 0.08984108 0.13386995 -0.034092028 -0.025737092
0.047450624 -0.06548066 -0.011020113 -0.04529414 0.047683753 0.02598647 0.033468887 -0.015572028
0.083737805 -0.092354 -0.06987454 0.006431842 -0.088115394 0.08122641 -0.011252529 -0.061440993
0.026892453 0.03926137 -0.02213774 -0.009672029 -0.06122437 -0.036759228 0.024463054 -0.05920154
0.02176374 -0.07671431 -0.0739264 -0.065180495 0.08772185 -0.032808445 0.07272803 0.10063568
0.053277668 0.094467334 0.014134973 0.044372197 -0.0856259 -0.011557359 -0.015159421 0.0012081172
-0.076160096 0.0107245 -0.0011815187 0.07593705 -0.099881575 0.093112685 0.005179804 -0.06868364
-0.028903468 0.057298176 0.01890802 -0.13786054 -0.05584929 -0.08959908 -0.08926367 -0.1138996
0.016781598 -0.00014602952 -0.008201402 -0.004654511 0.05624686 -0.082050696 0.0052273013 0.028474264
-0.048095383 0.11161731 0.12924108 0.08775884 -0.08984524 0.02892512 0.10361946 -0.11563817
0.0128754005 -0.00094520487 -0.060011487 0.005470231 0.031950448 -0.05226986 0.07042312 0.04813023
0.03252556 0.076593295 -0.006366195 -0.06850619 0.12813413 0.08632864 0.07828747 -0.047514863
0.08401231 0.0052254195 0.03772355 0.054737516 -0.0145132765 -0.13039023 0.053947058 -0.06726254
-0.05144668 -0.072631784 -0.022876326 -0.027484864 0.08248097 0.09222458 0.11590498 0.01896271

decoder.embedding.weight_quantized u1 [500, 320]
00000000: 797a 8a8c 8481 7c7b 8283 857a 7d86 8188
00000010: 7781 7f77 8688 737e 8585 7375 7377 7781
00000020: 857d 807d 8188 887d 817b 8184 747e 837f
00000030: 7a83 7f7b 7783 897e 8388 7b8f 8179 8080
00000040: 7e77 817f 807f 787c 8079 7e78 8285 7a7e
00000050: 837b 7284 8779 7985 8183 7984 7f80 817e
00000060: 7e7f 7679 8882 7689 867f 8884 8174 7c8a
00000070: 8080 897f 778b 768c 8286 7a77 8488 7484
00000080: 8479 7a82 787d 8572 847b 8473 8781 7986
00000090: 8a7e 868e 8384 8187 9073 8e8a 757f 887f
000000a0: 8080 807d 7875 787f 7a80 847a 877e 7888
000000b0: 8484 8288 727c 7d7f 8176 7a78 887b 778e
000000c0: 777d 8285 7b80 887a 797c 767b 7a71 7a87
000000d0: 747c 8b89 7c7e 7e77 7b82 888a 7c85 808b
000000e0: 7475 827d 7c77 7381 8788 8d79 8584 818c
000000f0: 7982 7f8d 7e77 7e87 8682 7d87 7d7f 7f7c
121 122 138 140 132 129 124 123
130 131 133 122 125 134 129 136
119 129 127 119 134 136 115 126
133 133 115 117 115 119 119 129
133 125 128 125 129 136 136 125
129 123 129 132 116 126 131 127
122 131 127 123 119 131 137 126
131 136 123 143 129 121 128 128
126 119 129 127 128 127 120 124
128 121 126 120 130 133 122 126
131 123 114 132 135 121 121 133
129 131 121 132 127 128 129 126
126 127 118 121 136 130 118 137
134 127 136 132 129 116 124 138
128 128 137 127 119 139 118 140
130 134 122 119 132 136 116 132
132 121 122 130 120 125 133 114
132 123 132 115 135 129 121 134
138 126 134 142 131 132 129 135
144 115 142 138 117 127 136 127
128 128 128 125 120 117 120 127
122 128 132 122 135 126 120 136
132 132 130 136 114 124 125 127
129 118 122 120 136 123 119 142
119 125 130 133 123 128 136 122
121 124 118 123 122 113 122 135
116 124 139 137 124 126 126 119
123 130 136 138 124 133 128 139
116 117 130 125 124 119 115 129
135 136 141 121 133 132 129 140
121 130 127 141 126 119 126 135
134 130 125 135 125 127 127 124

decoder_proj.weight_quantized i1 [320, 320]
00000000: f3f6 000f 05f8 faff fbe8 f8fe f6fe 02fe
00000010: 0906 04f7 f8fb 06e6 fdf1 f7f1 fff1 0cf9
00000020: 0406 0e03 f8e9 18fb fe01 f3fb ff1b 16ff
00000030: 0d22 deef 0cee ec01 0205 13f4 08f7 fdee
00000040: ff02 0bf5 07f3 f810 0c0e ec0a 04ff f9fd
00000050: 04ff f7fd f504 1bf0 e705 04f9 0b06 f70c
00000060: 00f5 180b 19fc 03fc f4fa 10f6 0400 fe04
00000070: 03fe ea01 1500 0302 09fd 00f6 f8fb f1f1
00000080: 07ee f9fe f603 ed08 f4fa ff06 fbf4 ef18
00000090: 09ef 0df3 05f7 0502 14e7 f802 ee07 02ff
000000a0: edf7 0e08 f30d 07f7 f905 07f7 08f7 f5f8
000000b0: 0009 eafb 020b 0508 0ff3 0e13 0312 19ef
000000c0: 020f 0c00 e4f8 0a00 fdfa 01e4 f200 140b
000000d0: 08fe 0909 0708 02e5 fff6 0711 01fb 14fe
000000e0: fd01 050a e20d 1103 f309 fff8 0607 0af8
000000f0: faeb ff0c f101 ff15 fd03 f9fb f205 f923
-13 -10 0 15 5 -8 -6 -1
-5 -24 -8 -2 -10 -2 2 -2
9 6 4 -9 -8 -5 6 -26
-3 -15 -9 -15 -1 -15 12 -7
4 6 14 3 -8 -23 24 -5
-2 1 -13 -5 -1 27 22 -1
13 34 -34 -17 12 -18 -20 1
2 5 19 -12 8 -9 -3 -18
-1 2 11 -11 7 -13 -8 16
12 14 -20 10 4 -1 -7 -3
4 -1 -9 -3 -11 4 27 -16
-25 5 4 -7 11 6 -9 12
0 -11 24 11 25 -4 3 -4
-12 -6 16 -10 4 0 -2 4
3 -2 -22 1 21 0 3 2
9 -3 0 -10 -8 -5 -15 -15
7 -18 -7 -2 -10 3 -19 8
-12 -6 -1 6 -5 -12 -17 24
9 -17 13 -13 5 -9 5 2
20 -25 -8 2 -18 7 2 -1
-19 -9 14 8 -13 13 7 -9
-7 5 7 -9 8 -9 -11 -8
0 9 -22 -5 2 11 5 8
15 -13 14 19 3 18 25 -17
2 15 12 0 -28 -8 10 0
-3 -6 1 -28 -14 0 20 11
8 -2 9 9 7 8 2 -27
-1 -10 7 17 1 -5 20 -2
-3 1 5 10 -30 13 17 3
-13 9 -1 -8 6 7 10 -8
-6 -21 -1 12 -15 1 -1 21
-3 3 -7 -5 -14 5 -7 35
