example/assets/models/keywordSpotter/joiner-epoch-12-avg-2-chunk-16-left-64.int8.onnx (onnx, 163380 bytes, 2 tensors)

output_linear.bias f4 [500]
000000 c0 32 7d 3c 73 ab 33 bf 80 f1 34 bf 1f 68 28 3f
       0.015453994 -0.70183486 -0.70681 0.65783876
000010 77 4b 47 3f b1 1d 3b 3f 6e ec a1 3f 15 d8 3d 3f
       0.77849525 0.7309218 1.2650278 0.7415784
000020 ba 34 ce 3d ca 01 2f 3f 23 6e 2a 3f 30 35 5c 3f
       0.100686505 0.68362105 0.66574305 0.8601866
000030 8d 4b e4 bd 6a 4e 75 3f 88 98 7f 3d 6c 2d 79 3e
       -0.11147223 0.95822775 0.062401325 0.24333733
000040 4a 0a 04 3f 51 2c fd 3e f2 71 1b be 53 80 78 3f
       0.515782 0.49447873 -0.15180185 0.9707081
000050 d8 8f 38 40 be a4 3a 3f 96 00 8b 3f e3 bd 29 3f
       2.8837795 0.72907627 1.0859554 0.6630537
000060 d1 11 30 3f a4 28 88 3f 27 dc 4b 3f df 08 f9 3e
       0.68777186 1.0637403 0.796328 0.4863958
000070 0e b9 7e 3f 33 aa 11 3f cd d7 ae 3e 82 d0 5f 3f
       0.9950112 0.5690033 0.34149018 0.8742753
000080 26 59 54 3f ac ee 1c 3f 29 f4 40 3f 20 1b fa 3d
       0.8294853 0.61301684 0.7537256 0.12212205
000090 a3 23 5b 3f 97 4d 21 3e d7 3b 9e 3e 84 b4 37 3f
       0.8560125 0.15752254 0.3090503 0.7175982
0000a0 0c 64 84 3f ab 6a 1b 3f 19 8c f0 3e dc c9 ef 3e
       1.0343032 0.6070964 0.46981886 0.46833694
0000b0 ce 3d 28 bd 77 29 24 3e 55 58 a0 3e 3c cb f7 3e
       -0.041074567 0.16031443 0.31317392 0.48397243
0000c0 1e 00 b9 3e e7 f2 82 3f 9a 6e 49 3f 52 23 9f 3e
       0.36132902 1.0230378 0.7868439 0.31081635
0000d0 9a 83 79 3f 45 e3 59 3d ae 11 df bd 82 89 87 3f
       0.97466433 0.053195257 -0.10892044 1.0588839
0000e0 e0 c1 17 3f dd 3b e0 3d d9 41 d8 3e d7 02 39 3d
       0.59280205 0.10948918 0.42237738 0.045168724
0000f0 c6 c8 11 be ac 23 90 bd f0 1c 8e 3f a2 9d a9 3e
       -0.14236745 -0.07038054 1.1102581 0.33128077
000100 30 28 bf 3d b1 59 02 3e 27 e7 16 bf 3b 27 9a be
       0.09333837 0.12729527 -0.5894646 -0.30108055
000110 2a 16 4b 3f 19 0e 9c 3f 04 c5 81 3f 73 8e be 3e
       0.79330695 1.2191802 1.0138249 0.37218055
000120 75 0b 1a be 31 68 ab 3c 12 9e 74 be e0 3c 30 bd
       -0.15043433 0.020923706 -0.23888424 -0.043026805
000130 34 95 43 3f 94 ce 37 bd f8 9d 37 bf bd 99 2e be
       0.7639954 -0.044874743 -0.71725416 -0.17050834
000140 6c 67 ad be 72 5a 09 bf d2 8b 3f bf cd 55 f4 be
       -0.33867967 -0.53653634 -0.74822724 -0.4772171
000150 46 70 09 bf d0 a0 fd bd dc 84 39 bc 01 fc 27 be
       -0.5368694 -0.12384188 -0.01132318 -0.16404726
000160 5f 15 ca bd 50 e7 59 3e 34 c2 4f bf 81 31 30 bf
       -0.098673575 0.21279645 -0.81155705 -0.68825537
000170 eb ff 30 be c8 f3 bb be 68 85 76 3e 6b ae ee be
       -0.17285125 -0.36709428 0.24074328 -0.46617445
000180 04 78 da bd ea 0b be 3e 70 29 db 3e 81 3b 29 3f
       -0.106674224 0.37118465 0.42805052 0.6610642
000190 5f 5b 43 bf 05 e2 f9 be 4c bb 8e 3e b1 df 39 bf
       -0.76311296 -0.48805252 0.2787727 -0.7260695
0001a0 91 ab 0f 3d e6 e1 03 3f 82 21 a2 bd 6b 40 b1 3e
       0.035075728 0.5151657 -0.07916547 0.3461946
0001b0 1c 60 c2 be 5a 77 74 be e3 96 c1 3e 87 e6 53 3e
       -0.3796395 -0.23873654 0.3781043 0.20693408
0001c0 38 e2 96 bd dc c9 ec bd 63 17 0b bf 35 42 82 3f
       -0.073673666 -0.11561939 -0.5433256 1.0176455
0001d0 06 aa 32 bf e2 6d b2 be e4 c2 dc 3e 30 45 9c bb
       -0.69790685 -0.3484946 0.4311744 -0.00476899
0001e0 00 ca bc be 1a 42 dc be 3b 24 c7 be a9 10 2f be
       -0.36872864 -0.4301918 -0.3889483 -0.17096199
0001f0 e7 f3 34 bf 9b 7d 78 bf 95 2d 65 bf 61 8e 59 3e
       -0.70684665 -0.9706666 -0.8952268 0.2124572
000200 42 24 f6 be e6 97 f6 be 70 9c d4 3c 9b 8b 0d bf
       -0.48074538 -0.48162764 0.025953501 -0.55291146
000210 b1 4c 2d 3c 20 f1 1f bf ea 30 97 3e cc 0e 8e be
       0.010577367 -0.624773 0.29529506 -0.27745664
000220 2a b0 a0 3c d7 21 e5 be 78 2f 53 bf b4 6d 5a bf
       0.019615252 -0.4475238 -0.82494307 -0.85323644
000230 e5 99 c8 be d8 9b 85 bf 42 ee 22 3e e0 08 83 ba
       -0.39179912 -1.0438185 0.159112 -0.0009997152
000240 6f d3 12 3f 46 60 95 be 1d 43 4c bf 43 ef 7f bf
       0.5735387 -0.29175013 -0.79789907 -0.9997446
000250 85 09 a1 bf 42 8f 23 bf 5e 40 fd be cd 50 8a 3e
       -1.258103 -0.6389047 -0.4946317 0.2701477
000260 06 4d 97 3d 25 cc 9e be 74 59 95 be ce a4 cb 3e
       0.07387738 -0.31015125 -0.2916981 0.39774173
000270 ac d1 48 be a4 7e 47 bf a2 40 75 be e9 cb ec be
       -0.19611233 -0.77927613 -0.23950437 -0.4624932
000280 be e0 37 be f4 d5 69 3e 6c d2 0f bf 2b 7e 80 be
       -0.17956826 0.22835523 -0.56180453 -0.2509626
000290 2f 7a aa 3e 18 96 05 bf 8b 26 22 bf b2 76 65 bd
       0.33296344 -0.5218215 -0.6334006 -0.0560214
0002a0 80 87 b5 be 05 dc 25 bf c0 cf f6 3e 95 2f 15 bf
       -0.3545494 -0.6478885 0.48205376 -0.5827573
0002b0 14 ed 92 3e 23 5d 2f bf 2b 8e 44 bf 08 13 2b bf
       0.286965 -0.6850149 -0.7677943 -0.66825914
0002c0 ca 7b b9 be 6c 78 ab bc a1 e7 23 bf 16 5c f9 be
       -0.36227256 -0.020931445 -0.6402531 -0.48703068
0002d0 4f 62 1f bf 59 06 d6 3e 0e bb 64 be bf 2a 65 3d
       -0.6225938 0.41801718 -0.2233698 0.05594897
0002e0 1d cf e5 be f8 9c f1 bd 5e 1e c8 be d4 0c 5f 3e
       -0.44884577 -0.117975175 -0.39085668 0.21782237
0002f0 3f 9a d4 be 1d a6 07 bf fa 80 99 be d8 2d a8 bf
       -0.4152393 -0.52987844 -0.29981214 -1.313899
000300 38 b6 17 bf f6 d8 37 bf e7 54 52 be 99 39 7c be
       -0.5926242 -0.7181543 -0.205402 -0.24631347
000310 28 50 f9 be 58 d9 47 bc 3e 1f 58 3d 49 c1 29 bf
       -0.48693967 -0.012197815 0.05276417 -0.66310555
000320 d4 0c 4d 3d da 02 2a bf e8 33 5a bd 27 fd a1 be
       0.050061062 -0.664106 -0.053272158 -0.31638452
000330 c1 5e 94 be 11 93 ca be da 9c 8b 3e 48 e6 bb bc
       -0.28978541 -0.39565328 0.27268106 -0.022936955
000340 47 46 37 bf eb 91 2f 3f 5c 33 97 3c e4 38 29 bf
       -0.7159161 0.6858203 0.018457107 -0.66102433
000350 6b 6d 0d be f5 06 38 bf 09 b8 18 bf 89 e6 c2 be
       -0.13811271 -0.71885616 -0.59655815 -0.3806651
000360 5b 0d ca be fd d9 85 bf 66 6a 1b 3d 86 c4 f3 be
       -0.39463314 -1.045715 0.037943266 -0.47610873
000370 22 3d 29 be 49 58 2c bf 05 85 64 bf 28 df 32 bf
       -0.16527227 -0.6732221 -0.8926547 -0.6987176
000380 5c 9c 90 be 2b 31 32 bf 5a 21 cc be 7d c2 0f bf
       -0.28244293 -0.69606274 -0.39869195 -0.5615614
000390 69 cb 17 bf e4 4b 0d bf a8 d5 ab bd c0 ee e0 be
       -0.59294754 -0.55193925 -0.08390361 -0.43932152
0003a0 80 4c c9 ba f1 31 08 bf d7 54 08 be 0e 35 98 be
       -0.0015357882 -0.53201205 -0.13313614 -0.29727978
0003b0 06 42 ed bd f2 d5 11 bf ef a7 bc be 18 2c 44 bf
       -0.115848586 -0.5696708 -0.36846873 -0.7662978
0003c0 0a e8 d0 be b3 32 c5 be b2 51 d4 be d5 a9 18 bf
       -0.40802032 -0.38515243 -0.4146858 -0.59634143
0003d0 e5 3e 96 be 8a c9 69 3e 50 b1 79 3d 24 dc 39 be
       -0.2934486 0.22830787 0.060960114 -0.18150383
0003e0 bd 33 ed be a7 bb 8d bf 0e b1 c4 be 15 9c 3a bf
       -0.46328536 -1.1072892 -0.38416332 -0.7289441
0003f0 12 a3 e9 be c1 66 00 bf 76 39 3f bf d5 e4 4c 3f
       -0.45632225 -0.5015679 -0.74697053 0.8003667

output_linear.weight_quantized i1 [320, 500]
000000 fc 01 01 0f 15 02 f9 06 f2 17 09 12 f2 fd ff f0
       -4 1 1 15 21 2 -7 6 -14 23 9 18 -14 -3 -1 -16
000010 ee 15 00 fa 05 01 04 d0 de ec 3e 07 fb f8 f0 00
       -18 21 0 -6 5 1 4 -48 -34 -20 62 7 -5 -8 -16 0
000020 13 07 20 ee f8 1a f3 ef 01 05 ff 1c f0 2f 34 09
       19 7 32 -18 -8 26 -13 -17 1 5 -1 28 -16 47 52 9
000030 01 00 00 ec f4 00 09 ff 1b 00 00 11 20 ff 05 ff
       1 0 0 -20 -12 0 9 -1 27 0 0 17 32 -1 5 -1
000040 f7 11 07 00 13 01 12 f5 fd fd 11 ff 07 fb 0b f9
       -9 17 7 0 19 1 18 -11 -3 -3 17 -1 7 -5 11 -7
000050 03 ed db f7 0f c9 0e e4 f0 02 17 0b 01 f5 0c e0
       3 -19 -37 -9 15 -55 14 -28 -16 2 23 11 1 -11 12 -32
000060 ef 17 08 fe 09 04 fe f5 09 0c 03 14 ed 07 fc fa
       -17 23 8 -2 9 4 -2 -11 9 12 3 20 -19 7 -4 -6
000070 fb fa f8 11 00 f9 eb 06 e4 fa ef fe e7 10 05 ff
       -5 -6 -8 17 0 -7 -21 6 -28 -6 -17 -2 -25 16 5 -1
000080 cb f4 f9 22 03 07 0b fa f4 03 03 ec ff 02 13 0b
       -53 -12 -7 34 3 7 11 -6 -12 3 3 -20 -1 2 19 11
000090 f9 04 e6 eb 0b ce 0e 01 ff 02 01 03 11 03 27 fc
       -7 4 -26 -21 11 -50 14 1 -1 2 1 3 17 3 39 -4
0000a0 fe f9 f9 11 00 00 0a 07 f6 0b 13 04 00 ed 09 fd
       -2 -7 -7 17 0 0 10 7 -10 11 19 4 0 -19 9 -3
0000b0 1b 0e ff ef 0c 20 1d 0d 1d f8 04 d5 ff 01 10 03
       27 14 -1 -17 12 32 29 13 29 -8 4 -43 -1 1 16 3
0000c0 0e 1e 20 fb f8 18 06 f4 02 09 e7 fa f1 ef f0 ff
       14 30 32 -5 -8 24 6 -12 2 9 -25 -6 -15 -17 -16 -1
0000d0 f6 fd 2b 13 f3 f6 0b ed e9 ff 09 09 01 f8 e6 fd
       -10 -3 43 19 -13 -10 11 -19 -23 -1 9 9 1 -8 -26 -3
0000e0 e7 04 fa 04 ed e7 19 04 14 10 fb f9 ea f6 02 fd
       -25 4 -6 4 -19 -25 25 4 20 16 -5 -7 -22 -10 2 -3
0000f0 f3 f6 e4 02 05 f3 09 08 06 0c f8 08 fc f1 ee ec
       -13 -10 -28 2 5 -13 9 8 6 12 -8 8 -4 -15 -18 -20
